temp_model.npy (torch_old, 840 bytes, 3 tensors)

qlayer.weights_r f4 [2, 2, 3]
00000000: b6b9 9640 34aa 9440 bc40 1fc0 701e c63f
00000010: a7ae fa40 cd03 1040 7d90 18c1 d73a 4a40
00000020: 18c3 9140 41ed c840 5189 0c40 6802 1c40
4.71017 4.6457767 -2.488326 1.5478039 7.83382 2.250232 -9.535275 3.1598413
4.555065 6.2789617 2.1958811 2.4376469

qlayer.weights_cr f4 [2, 1, 3]
00000000: 84f2 5940 c90e 4740 6b0e cdbf d37d 02c0
00000010: 6b52 bd40 9abe 09bf
3.405427 3.1102774 -1.6020025 -2.0389297 5.916311 -0.5380646

qlayer.weights_st f4 [3, 2, 3]
00000000: e1a8 8140 60b1 d13f 9511 9f40 8c0f 833f
00000010: 35aa 7b40 f400 223d d0d0 0e40 cb7b 8540
00000020: f98e 0340 9b17 f03f 70f4 3b40 324b 1240
00000030: e565 1e40 e413 1340 932c ba3f 06c0 4940
00000040: 5304 0940 bfdf ba3f
4.051865 1.6382256 4.9708962 1.023912 3.9322636 0.03955169 2.231495 4.1713614
2.0556014 1.8757204 2.9367943 2.2858396 2.4749691 2.298089 1.4544853 3.1523452
2.140889 1.4599532
